examples/valid_best_params.pt (torch_old, 452453 bytes, 103 tensors)

embedding.weight f4 [46, 98]
0	0x3d3fa9a4	0.04679264
1	0xbc96d00e	-0.018409755
2	0x3df8ba00	0.12144852
3	0x3da8ea58	0.082478225
4	0xbd6bd9bd	-0.0575807
5	0xbdf11aa9	-0.11772663
6	0x3e3cc72f	0.18435358
7	0xbd9bfe49	-0.076168604
8	0xbd5e2eef	-0.054243978
9	0x3c5dcf7c	0.013538238
10	0x3df54f85	0.11978058
11	0xbdb59076	-0.08865444
12	0xbe0323f9	-0.12806691
13	0x3d922786	0.07136445
14	0xbd80fc65	-0.062981404
15	0x3d5e8bf1	0.054332677
16	0xbe1b8a47	-0.15189467
17	0x3dace0ae	0.08441292
18	0x3d210c48	0.039318353
19	0x3dea8879	0.11451811
20	0xbcc5e733	-0.024158096
21	0x3eaad3dd	0.33364764
22	0xbe802f52	-0.25036103
23	0xbe1f3115	-0.15546067
24	0x3dd729a9	0.10505993
25	0x3d789700	0.06069088
26	0x3c247a20	0.0100388825
27	0x3e14f647	0.14547072
28	0x3c2a7900	0.010404825
29	0x3d8f0745	0.069838084
30	0xbdb034f5	-0.08603851
31	0xbd381aa5	-0.044947285
32	0xbd02ff16	-0.03198155
33	0x3e26c30e	0.16285345
34	0xbdb92864	-0.09040907
35	0xbd7e3faa	-0.062072434
36	0x3daec6b6	0.08533995
37	0xbe8f160f	-0.27946517
38	0xbc6c93e9	-0.014439561
39	0xbdbff4b3	-0.093728445
40	0x3af31151	0.0018544589
41	0xbe052196	-0.13001093
42	0x3d323e16	0.04351624
43	0xbcb8f3d0	-0.022577196
44	0x3db3dc30	0.08782232
45	0xbd009cf0	-0.031399667
46	0xbd0bc99d	-0.03412782
47	0x3daa23b1	0.08307589
48	0xbbab4882	-0.0052271495
49	0xbd88db39	-0.066824384
50	0x3bcb8805	0.006211283
51	0x3b7776da	0.003776005
52	0xbd5b7c52	-0.053585358
53	0xbdb63ee1	-0.08898712
54	0xbd18bd98	-0.037290186
55	0x3e45f5bd	0.19332023
56	0xbd403daa	-0.046933807
57	0xbe1d65e8	-0.15370905
58	0xbd8398f6	-0.06425659
59	0x3dd3d853	0.10343995
60	0x3dec9236	0.11551325
61	0x3e0a0e26	0.1348196
62	0x3d179c06	0.03701403
63	0xbde9d0ab	-0.114167534
64	0x3d82d0d9	0.06387491
65	0x3caa45ac	0.020785175
66	0xbc709128	-0.014683045
67	0xbd8f4a52	-0.06996597
68	0xbcff1ab8	-0.03114067
69	0xbd86679d	-0.065627314
70	0x3dbeab8b	0.09310063
71	0x3d59e604	0.053197876
72	0x3da41a91	0.0801288
73	0xbe419f9d	-0.18908544
74	0x3e2a3aed	0.16624041
75	0xbd837f72	-0.06420793
76	0xbbf40a80	-0.0074475408
77	0x3dae9172	0.08523835
78	0x3d6dbbef	0.058040556
79	0xbd4bb136	-0.04972955
80	0xbd7a7831	-0.06114978
81	0xbd9f6301	-0.07782555
82	0xbd54a5dc	-0.05191599
83	0x3d13c667	0.036077883
84	0x3ca67157	0.020317717
85	0xbe34a30e	-0.17640325
86	0xbe30dfad	-0.17272826
87	0x3e612a80	0.21988869
88	0xbcc127e1	-0.023578586
89	0xbd3adcf0	-0.04562086
90	0x3cb4ae74	0.022055842
91	0xbc014418	-0.00788977
92	0xbe25f3ac	-0.16206235
93	0xbec6373a	-0.3871401
94	0xbe87fcaa	-0.26559955
95	0x3ee6650f	0.44998977
96	0xbe12f3fe	-0.14350888
97	0x3e439616	0.19100222
98	0xbdbf65bc	-0.09345576
99	0x3d5c97de	0.05385577
100	0x3e075f9d	0.13220067
101	0x3c1c0ce8	0.009524561
102	0x3e723dd5	0.236564
103	0x3d9bc06d	0.07605062
104	0x3ee00209	0.43751553
105	0x3e898e32	0.268663
106	0x3dc1f443	0.09470417
107	0xbddb512a	-0.1070884
108	0xbe8dd107	-0.27698538
109	0xbdf576fe	-0.119855866
110	0x3dfe45b3	0.12415638
111	0xbe3a1333	-0.18171386
112	0xbc7a9635	-0.015294601
113	0x3dd0dc0c	0.101982206
114	0x3cfd2290	0.03090027
115	0xba16d000	-0.00057530403
116	0xbdacd2d5	-0.084386505
117	0x3e0c1a94	0.13682014
118	0xbe36d7fd	-0.1785583
119	0xbdb21b57	-0.08696621
120	0xbe07662a	-0.13222566
121	0xbda89f6c	-0.08233532
122	0x3e82a0ee	0.25513405
123	0xbc54e318	-0.0129935965
124	0x3b437d60	0.0029829368
125	0x3d31e610	0.043432295
126	0x3dbaa6fb	0.0911388
127	0xbc40144f	-0.011723592
128	0xbe1756e9	-0.14779247
129	0xbe12798a	-0.14304176
130	0xbcce2e04	-0.025168426
131	0xbe0255d2	-0.1272805
132	0x3dd4a587	0.10383134
133	0x3b7960e0	0.0038052127
134	0x3e58ed08	0.2118417
135	0x3d588a7b	0.05286644
136	0xbe2c0315	-0.1679805
137	0xbd321d78	-0.043485135
138	0xbe36df75	-0.1785868
139	0x3eccd036	0.40002602
140	0x3de3bbd0	0.11119807
141	0xbdb06ab4	-0.08614102
142	0xbd80fb39	-0.06297917
143	0xbdb04d2e	-0.08608471
144	0x3dc52e40	0.09627962
145	0x3dd3bc02	0.10338594
146	0xbe31a469	-0.17347874
147	0x3d0f6268	0.035005957
148	0x3e23840a	0.15968338
149	0x3e89d8f5	0.26923338
150	0x3e741584	0.23836333
151	0x3d984063	0.07434156
152	0x3d3c73ff	0.04600906
153	0xbe8d8525	-0.27640644
154	0xbe50a4a1	-0.20375301
155	0xbe007cfe	-0.1254768
156	0x3d9637f8	0.07334894
157	0x3e49af84	0.1969586
158	0xbb3446e8	-0.0027508084
159	0xbbeb4ca3	-0.0071807667
160	0xbd44ae33	-0.04801769
161	0xbe69f602	-0.22847751
162	0x3dd96c54	0.10616365
163	0x3c519d90	0.0127939135
164	0x3c6080f8	0.013702624
165	0x3b89c880	0.0042048097
166	0xbd1f3274	-0.038866475
167	0x3ab0c7c0	0.0013487265
168	0x3d24a8b9	0.04019997
169	0xbd8bbc4b	-0.068230234
170	0x3df86a0b	0.12129601
171	0xbbaf386c	-0.005347302
172	0x3d957fc0	0.07299757
173	0xbe2a0239	-0.1660241
174	0x3c3540d8	0.011062823
175	0x3d62b0a4	0.05534424
176	0x3dc62bc0	0.096763134
177	0xbe288adf	-0.16459225
178	0xbd5a18e7	-0.053246405
179	0xbc348458	-0.011017881
180	0xbccf3ab3	-0.025296545
181	0xbdd5f925	-0.10447911
182	0xbd4833e4	-0.04887761
183	0xbdb250db	-0.08706828
184	0xbd41f6bf	-0.047354456
185	0x3e4901ee	0.19629642
186	0x3e29bd9a	0.16576234
187	0xbdbdd9a2	-0.09270026
188	0x3d7dc090	0.06195122
189	0xba89b400	-0.0010505915
190	0xbd3c4c8f	-0.04597145
191	0x3dad08be	0.08448933
192	0x3d9d59e5	0.07683162
193	0xbe610cf0	-0.21977592
194	0xbd0460de	-0.032318942
195	0x3cca7658	0.024714634
196	0x3dc24e3c	0.09487578
197	0x3d0e4846	0.034736894
198	0xbcec9f8a	-0.028884668
199	0xbc605cb8	-0.013693981
200	0x3db732cf	0.08945238
201	0x3d868b35	0.065695204
202	0x3e77a23e	0.24182984
203	0x3e8362a4	0.25661194
204	0x3e4e306a	0.20135656
205	0x3caf7e7b	0.021422615
206	0xbe0b672b	-0.13613574
207	0xbe8489f7	-0.2588651
208	0xbe7d9146	-0.24762449
209	0x3d88b5e5	0.06675319
210	0xbe36412a	-0.17798296
211	0x3c092bd7	0.008372269
212	0x3c861a74	0.016370036
213	0xbb57e200	-0.0032941103
214	0xbd28e922	-0.041237958
215	0x3d48d603	0.049032222
216	0xbe02bf8a	-0.12768379
217	0xbd351be7	-0.044216063
218	0x3dca8cb9	0.09890122
219	0xbd2a05d2	-0.041509457
220	0x3e24c47a	0.16090575
221	0xbc26da50	-0.010183886
222	0x3b2a8ea0	0.0026024953
223	0xbde8a758	-0.11360043
224	0x3e2775fd	0.16353603
225	0x3d415da3	0.04720844
226	0x3db19f37	0.08672946
227	0xbd4b45e0	-0.049627185
228	0x3d7c3208	0.06157115
229	0xbe240bbd	-0.16020103
230	0xbd2e4e3b	-0.042555075
231	0xbcfc0eac	-0.030768715
232	0x3e3a265c	0.18178695
233	0xbd4ea360	-0.050448775
234	0xbd8f9c97	-0.07012289
235	0xbd7a1357	-0.0610536
236	0xbded2458	-0.11579198
237	0x3d8177fc	0.06321713
238	0x3d1eb1cf	0.03874379
239	0x3c3b9130	0.01144819
240	0x3d48d9a0	0.04903567
241	0xbc399690	-0.011327401
242	0x3d8e3372	0.06943406
243	0x3ddc6c1e	0.10762809
244	0xbd949f83	-0.07256987
245	0xbddc9a05	-0.107715644
246	0xbce8cc4d	-0.02841773
247	0x3e27dc8b	0.16392724
248	0x3e818ef5	0.2530438
249	0x3e27470e	0.16335699
250	0x3dd6335b	0.10459014
251	0x3d7d51f5	0.06184574
252	0xbe8f3bf7	-0.27975437
253	0xbe65cbc5	-0.22441013
254	0x3da8556a	0.082194164
255	0xbdfdca5d	-0.12392113

embedding.bias f4 [46]
0	0xbb8aedec	-0.0042397883
1	0xbe91e51b	-0.28495106
2	0xbdb0a1c0	-0.08624601
3	0xbd95cef8	-0.07314867
4	0xbea3c8f7	-0.31989262
5	0xbdce24c4	-0.10065606
6	0xbde2a133	-0.110659026
7	0xbd7f2db4	-0.062299445
8	0xbc0dda0f	-0.008657946
9	0xbd2573f1	-0.040393773
10	0xbe83dbc3	-0.25753602
11	0xbdc0087a	-0.09376617
12	0x3dd986cd	0.10621414
13	0xbdaa2fd3	-0.08309903
14	0xbe78878a	-0.24270454
15	0xbe5551f2	-0.20832041
16	0xbdfc0d62	-0.1230724
17	0xbe2fbbd2	-0.17161492
18	0xbe52c3cf	-0.20582508
19	0xbde5406a	-0.11193927
20	0xbe30c3dd	-0.17262216
21	0xbd2da981	-0.04239798
22	0x3d3a7a40	0.045526743
23	0xbda36da9	-0.079799004
24	0x3eec0f5b	0.46105465
25	0xbe047128	-0.1293379
26	0xbd532503	-0.05154897
27	0xbe7c073d	-0.24612136
28	0x3bfc7ed8	0.0077055506
29	0xbd0c8971	-0.03431076
30	0xbd78b7bc	-0.060722098
31	0xbd9b45da	-0.075816825
32	0x3e72ce19	0.23711433
33	0xbdc01a91	-0.09380067
34	0xbe854b9d	-0.2603425
35	0xbd1fd8f2	-0.039025255
36	0xbe71c9c2	-0.23612121
37	0xbdab341e	-0.0835955
38	0xbdcee8fb	-0.10103031
39	0xbe0cab0b	-0.13737123
40	0xbd911437	-0.07083934
41	0xbe076823	-0.13223319
42	0xbca91bb2	-0.020643089
43	0x3e166b37	0.14689337
44	0x3d23d70f	0.040000018
45	0xbe00c830	-0.12576365

convs.0.fc_full.weight f4 [92, 98]
0	0xbc77ae99	-0.015117311
1	0xbd0f0125	-0.0349132
2	0xbd017537	-0.031605925
3	0x3decc696	0.11561315
4	0xbe07e5e4	-0.1327129
5	0x3df740e5	0.120729245
6	0x3e2e9458	0.17048776
7	0xbe0f5156	-0.13995871
8	0xbdfdfd58	-0.12401837
9	0xbe06f042	-0.13177589
10	0xbbfd92aa	-0.007738431
11	0xbcb7064a	-0.022341866
12	0xbdb17778	-0.08665365
13	0x3d1149d5	0.035470802
14	0x3c83ab2c	0.016072832
15	0xbd9ac5ab	-0.075572334
16	0xbdc3952b	-0.09549936
17	0x3e005ef8	0.12536228
18	0xbe60cfec	-0.21954316
19	0x3dcce59d	0.10004733
20	0xbe44b00a	-0.19207779
21	0xbc528a30	-0.012850329
22	0x3b1bd785	0.0023779583
23	0xbdd9ba6f	-0.106312625
24	0xbd69a2f4	-0.05704017
25	0xbd113042	-0.035446413
26	0x3b79d07a	0.0038118646
27	0x3da8c85e	0.08241342
28	0x3d838bac	0.06423125
29	0x3e39406f	0.18090986
30	0xbe267c25	-0.16258295
31	0xbe202f71	-0.15643097
32	0x3cd519cc	0.026013277
33	0xbe4d2380	-0.20033073
34	0xbe6eb6a3	-0.23311858
35	0x3dbf47c1	0.09339858
36	0x3e2bd0dd	0.16778894
37	0x3da84981	0.08217145
38	0xbdf99801	-0.121871956
39	0xbd89ebc6	-0.06734423
40	0xbdc899ac	-0.097949356
41	0xbdaa7af7	-0.08324235
42	0xbe45a790	-0.19302201
43	0x3d4485a0	0.047978997
44	0x3e08cf04	0.1336022
45	0x3d2bec0e	0.041973166
46	0x3d84c5f8	0.06483072
47	0xbdc40bb1	-0.095725425
48	0xbea1097d	-0.3145255
49	0xbc92f15e	-0.017937358
50	0x3de625c7	0.11237674
51	0x3e216682	0.1576176
52	0x3dbf9e03	0.0935631
53	0x3e172cd9	0.14763202
54	0xbc34da55	-0.011038383
55	0x3ca831d6	0.020531576
56	0x3d0eb3f9	0.034839604
57	0x3dbbccb2	0.09169902
58	0x3e4ba8fa	0.19888678
59	0x3d10b8ba	0.03533242
60	0xbe21e580	-0.15810204
61	0xbe76266d	-0.24038096
62	0xbc82cd09	-0.015966909
63	0x3e097b6c	0.13425988
64	0x3c50fb7f	0.012755274
65	0xbcbe7b0f	-0.023252038
66	0x3e1b216f	0.15149473
67	0x3ddf5201	0.10904313
68	0xbdec3125	-0.11532811
69	0xbdb8df33	-0.09026947
70	0x3b6f9be8	0.0036561433
71	0xbd1e4d6d	-0.038648058
72	0x3e4f32d2	0.2023423
73	0x3e2f9fad	0.17150755
74	0x3d2f4827	0.04279342
75	0x3d75fca0	0.060055375
76	0x3cd42798	0.025897786
77	0xbe4e97c3	-0.2017508
78	0x3d9dffc3	0.07714798
79	0xbe447c39	-0.19188012
80	0x3dda4a8e	0.106587514
81	0xbc24cca0	-0.010058552
82	0x3c321a8b	0.010870586
83	0xbe361b3b	-0.17783825
84	0x3e1b216a	0.15149465
85	0x3e033431	0.12812878
86	0xbe36e267	-0.17859803
87	0xbda5d01c	-0.08096334
88	0xbc39a937	-0.011331848
89	0xbbacc060	-0.0052719563
90	0xbdf28918	-0.11842555
91	0xbe3b69f2	-0.18302134
92	0x3d29d263	0.041460406
93	0xbe6ddafc	-0.23228067
94	0x3d914afe	0.07094382
95	0xbde56153	-0.11200204
96	0xbde61bb8	-0.11235756
97	0x3dd44e00	0.1036644
98	0xbe590acd	-0.21195526
99	0x3e167f56	0.14697012
100	0x3cc9e190	0.02464369
101	0xbe3b1f80	-0.18273735
102	0xbcabc5f1	-0.02096841
103	0x3d732c38	0.059368342
104	0xbcbeca65	-0.023289869
105	0x3de4c4b9	0.11170334
106	0x3e26bc19	0.16282691
107	0x3e178a68	0.14798892
108	0xbdcf362c	-0.10117754
109	0xbd80de4a	-0.06292398
110	0x3c1f2154	0.009712536
111	0xbe3cfd1d	-0.1845593
112	0xbe2b4f58	-0.16729486
113	0x3c649015	0.013950367
114	0xbd96d1a6	-0.07364206
115	0x3d42e868	0.04758492
116	0x3ad8ec5d	0.0016549934
117	0x3d810b83	0.06301024
118	0x3e1384ac	0.14406079
119	0xbe192c64	-0.1495834
120	0x3de17c29	0.1101001
121	0xbe182e49	-0.14861406
122	0xbe71606c	-0.23571938
123	0xbe0646a4	-0.13112885
124	0x3de9e368	0.114203274
125	0xbe743f7d	-0.23852344
126	0x3dd77160	0.105196714
127	0xbdfa997f	-0.12236308
128	0xbdec8ba0	-0.11550069
129	0x3dbaa995	0.091143765
130	0xbd8da543	-0.06916287
131	0xbd25c80a	-0.040473975
132	0x3d530592	0.051518984
133	0x3e43f080	0.19134712
134	0x3e00843d	0.12550445
135	0xbe0f056e	-0.13966915
136	0x3e30bfaa	0.17260614
137	0x3d3602f3	0.044436406
138	0xbc15ca23	-0.009142431
139	0xbd481663	-0.048849475
140	0x3cf5545b	0.02994745
141	0xbe3aceaf	-0.18242906
142	0xbe5eea21	-0.21769
143	0xbdc8414f	-0.097780816
144	0xbdb1acfd	-0.08675573
145	0xbd780836	-0.060554706
146	0xbe51986e	-0.20468304
147	0x3a9f83ea	0.0012170051
148	0x3df3add6	0.11898391
149	0xbdcb2f28	-0.09921104
150	0x3dd0ea55	0.10200945
151	0x3e4f5382	0.202467
152	0xbd406564	-0.046971694
153	0xbc892d7b	-0.01674532
154	0x3e35e819	0.1776432
155	0xbd424266	-0.047426604
156	0x3d73ced0	0.059523404
157	0xbdd4960a	-0.1038018
158	0x3b939143	0.0045034005
159	0xbd132a75	-0.035929162
160	0xbda87eb3	-0.08227291
161	0x3d00960e	0.031393103
162	0x3dc39eb6	0.09551756
163	0xbde4034f	-0.111334436
164	0x3cb1644e	0.021654274
165	0xbdcc7924	-0.09984043
166	0x3d364c4f	0.044506367
167	0x3e4a757a	0.19771376
168	0x3e020765	0.12698133
169	0xbdbe34d0	-0.09287417
170	0x3e1cc549	0.15309633
171	0xbd57c553	-0.052678417
172	0xbd42ad31	-0.04752845
173	0x3e0e18ee	0.13876697
174	0x3d5ca222	0.05386556
175	0xbb0a97d1	-0.0021147619
176	0x3e15781e	0.14596602
177	0xbec16ebe	-0.37779802
178	0xbe04ce46	-0.12969312
179	0xbe2b94cd	-0.16755982
180	0xbda74454	-0.081673294
181	0x3e5941c4	0.21216494
182	0x3db9e312	0.09076513
183	0x3d8809ef	0.0664252
184	0xbdb20c12	-0.086937085
185	0x3dd8afdb	0.10580417
186	0xba355492	-0.0006917204
187	0x3d1bd2a2	0.038042672
188	0xbbdce3a7	-0.0067410055
189	0x3cf12027	0.029434277
190	0x3e8944d0	0.26810312
191	0x3c9ae2a5	0.0189069
192	0xbe16f750	-0.1474278
193	0xbe3882c3	-0.18018632
194	0xbe2a7664	-0.16646725
195	0xbdbd4d7c	-0.092432946
196	0xbd06585c	-0.03279911
197	0x3d928089	0.071534224
198	0x3e3a018c	0.18164653
199	0x3da2d152	0.07950081
200	0xbe037668	-0.12838137
201	0xbdc28dea	-0.09499724
202	0x3da9fffa	0.08300777
203	0x3e543601	0.20723726
204	0x3dc8c4fe	0.09803198
205	0x3e6110bd	0.21979041
206	0x3e1851cb	0.14874952
207	0x3d2a99a7	0.04165044
208	0xbc34bdbd	-0.011031565
209	0xbe0a748e	-0.13521025
210	0x3db4c6e7	0.08827
211	0x3e1a5d02	0.15074542
212	0xbde8f4b1	-0.11374796
213	0x3cc079f7	0.023495657
214	0x3dca7022	0.09884669
215	0x3e08df77	0.13366495
216	0x3c9a3d58	0.01882808
217	0x3d9dd91c	0.07707426
218	0x3e170cbb	0.1475095
219	0x3db608b3	0.08888378
220	0xbdeb7b7d	-0.11498163
221	0x3ded7da9	0.115962334
222	0xbdbd20a1	-0.09234739
223	0x3d3c12c7	0.045916345
224	0x3debd138	0.11514515
225	0xbd559423	-0.052143227
226	0xbd375852	-0.044761963
227	0xbe3b99db	-0.1832041
228	0xbe37be76	-0.17943749
229	0xbc58fe2f	-0.013244196
230	0xbe1bfbaf	-0.15232728
231	0xbe01b728	-0.12667525
232	0x3e9e460f	0.30912825
233	0x3d6f8a26	0.058481358
234	0xbdc9b02c	-0.09848055
235	0x3e6bc72d	0.23025198
236	0x3ce8991f	0.028393326
237	0x3df2896d	0.11842618
238	0x3e63edd4	0.22258693
239	0xbcedaf12	-0.029014144
240	0x3bf67d03	0.007522227
241	0xbdbcfe0c	-0.09228143
242	0x3c4f349c	0.01264682
243	0xbe6020ab	-0.21887462
244	0xbe3a2026	-0.18176326
245	0xbe17901d	-0.14801069
246	0xbd6dddfb	-0.058073025
247	0x3d94d2b3	0.0726675
248	0x3d8e215c	0.069399565
249	0xbc9d2e7c	-0.019187205
250	0x3d0a30ee	0.03373807
251	0xbdbf24ad	-0.09333167
252	0xbdbf9bad	-0.09355865
253	0x3e210c1a	0.15727273
254	0xbd84fd1c	-0.06493589
255	0x3d7a0b4b	0.061045926

convs.0.fc_full.bias f4 [92]
0	0xbd035939	-0.03206751
1	0x3d791969	0.06081525
2	0x3d315da5	0.043302197
3	0xbd45b749	-0.048270497
4	0xbdbe0ac8	-0.092794
5	0x3d5482f8	0.051882714
6	0x3d59ed47	0.0532048
7	0x3cc38671	0.023867818
8	0xbc4d6f97	-0.012538812
9	0xbd817c9a	-0.06322594
10	0xbc9f6c02	-0.019460682
11	0xbda20c81	-0.07912541
12	0x3d20be21	0.03924382
13	0xbd763837	-0.060112204
14	0xbd3192e3	-0.043352973
15	0x3d61d612	0.055135794
16	0x3dc410d4	0.09573522
17	0xbcfb84fa	-0.030703057
18	0xbba65679	-0.0050762263
19	0xbdb5331b	-0.08847638
20	0x3dbfa83c	0.0935826
21	0x3d30ede9	0.04319564
22	0x3d3cae54	0.04606469
23	0xbddd1898	-0.107957065
24	0xbcca5b8f	-0.024701862
25	0xbd2f8623	-0.042852532
26	0xbdbde4e5	-0.09272174
27	0x3d0c41a5	0.03424229
28	0x3d1c6388	0.038180858
29	0x3d0d975c	0.034568176
30	0x3bfaa174	0.0076486412
31	0x3dc5c13b	0.096559964
32	0x3e01eff4	0.12689191
33	0xbd9f34c1	-0.07773734
34	0xbd1cae88	-0.038252383
35	0xbdb70ae0	-0.08937621
36	0xbc7e6771	-0.015527592
37	0xbd3c10dc	-0.045914516
38	0xbd2fca98	-0.042917818
39	0xbd3d198f	-0.046166953
40	0xbd083bd4	-0.03326018
41	0x3c164647	0.009172029
42	0xbd130e75	-0.03590246
43	0xbd1cd993	-0.038293432
44	0x3d2e2056	0.042511307
45	0x3b755f5e	0.0037440876
46	0x3c7c87b6	0.015413215
47	0x3d5669a0	0.052346826
48	0xbca6ac27	-0.02034576
49	0x3d04c376	0.03241297
50	0x3d9dc568	0.07703668
51	0x3d7d1410	0.06178671
52	0xbd9e390e	-0.07725726
53	0x3df45ec4	0.119321376
54	0xbd5037c2	-0.050834425
55	0xbe216e25	-0.15764673
56	0x3c836966	0.016041469
57	0x3dbecc8e	0.093163595
58	0xbceb400b	-0.028717062
59	0xbda890ac	-0.08230719
60	0xbcd7a71b	-0.0263248
61	0xbd38b612	-0.04509551
62	0x3d54baa8	0.05193582
63	0x3d070c44	0.03297068
64	0xbc8eaa8e	-0.017415311
65	0x3e88ab7b	0.2669333
66	0x3dbf8125	0.09350804
67	0xbc8d675b	-0.017261198
68	0x3d953bea	0.07286818
69	0xbd43974a	-0.047751702
70	0xbca25494	-0.01981572
71	0xbd09de06	-0.033659004
72	0x3db42b93	0.087973736
73	0x3df5c79f	0.12000965
74	0x3d8c9ab4	0.06865445
75	0x3c075e63	0.00826225
76	0x3c32ad1d	0.010905531
77	0x3dd506ee	0.10401712
78	0x3d6d484d	0.05793028
79	0xbe21a59b	-0.1578583
80	0x3cf91f13	0.030410325
81	0xbcd010bc	-0.025398605
82	0xbc1efdab	-0.009704034
83	0x3daa3d90	0.08312523
84	0xbcbb6f1b	-0.022880128
85	0x3b85643f	0.004070788
86	0xbc16eede	-0.009212224
87	0xbd214063	-0.039368045
88	0x3d8586b4	0.06519833
89	0xbdc4734b	-0.09592303
90	0xbdab2cab	-0.08358129
91	0xba690536	-0.0008889021

convs.0.bn1.weight f4 [92]
0	0x3f92dd8d	1.1473862
1	0x3e731ef5	0.23742278
2	0x3f7d568a	0.98960173
3	0x3f252d64	0.64522386
4	0x3ea11532	0.31461483
5	0x3ec153ea	0.37759334
6	0x3f815a16	1.0105617
7	0x3f44c644	0.7686503
8	0x3f904927	1.1272324
9	0x3f5b13ad	0.855769
10	0x3f3e697b	0.743797
11	0x3e774ea9	0.241511
12	0x3f3fbc9c	0.7489717
13	0x3e4f8118	0.20264089
14	0x3e9a9e7d	0.30199042
15	0x3ef0cef7	0.47032902
16	0x3f98f9cc	1.1951232
17	0x3f94cf7c	1.1625819
18	0x3f0e104d	0.55493623
19	0x3f03f07f	0.5153884
20	0x3f354954	0.70815015
21	0x3f2f3a21	0.6844807
22	0x3fd6bdc2	1.677666
23	0x3f3c18d7	0.734754
24	0x3f953e93	1.1659721
25	0x3eb65393	0.35610637
26	0x3f05d5a6	0.52279127
27	0x3f442ebf	0.7663383
28	0x3ead052c	0.33793008
29	0x3e430327	0.19044171
30	0x3f0a1956	0.5394491
31	0x3f34f109	0.7068029
32	0x3f21cce0	0.6320324
33	0x3ea2ba50	0.3178277
34	0x3e9f0809	0.31060818
35	0x3f1e11c2	0.61745846
36	0x3f5911db	0.8479287
37	0x3f352608	0.70761156
38	0x3f2d235f	0.67632097
39	0x3f2b92f9	0.6702114
40	0x3eb4cbdc	0.35311782
41	0x3fc203d2	1.5157416
42	0x3e6a640c	0.22889727
43	0x3eaa4d62	0.33262163
44	0x3f5335c3	0.8250391
45	0x3eaa7120	0.33289433
46	0x3f72cfa5	0.9484809
47	0x3f050374	0.51958394
48	0x3f9cc5b7	1.2247838
49	0x3f8e8498	1.1134214
50	0x3e0f3bd9	0.13987674
51	0x3f21150e	0.6292275
52	0x3e9ea99d	0.3098878
53	0x3f4096be	0.75230014
54	0x3e883593	0.26603374
55	0x3eb8cced	0.36093846
56	0x3e973f86	0.29540652
57	0x3f22c9c8	0.63589144
58	0x3ed9dff0	0.42553663
59	0x3f53a00a	0.82666075
60	0x3f4ea538	0.80720854
61	0x3f09ae30	0.53781414
62	0x3f0f459f	0.5596561
63	0x3f3ae28f	0.7300195
64	0x3e610b6f	0.21977018
65	0x3ebd8a02	0.37019354
66	0x3ec57950	0.38569117
67	0x3f05ec66	0.5231384
68	0x3f830369	1.0235416
69	0x3e6c4ca5	0.23076113
70	0x3ee2cc18	0.44296336
71	0x3dfcfb32	0.12352599
72	0x3ede55f7	0.4342496
73	0x3ebecb01	0.37264255
74	0x3f607b0c	0.87687755
75	0x3f8be49f	1.0929145
76	0x3f409ddb	0.7524087
77	0x3ef8bcec	0.48581636
78	0x3e86d977	0.26337788
79	0x3ea23e31	0.31688073
80	0x3ee16d0f	0.44028518
81	0x3f5bd837	0.8587679
82	0x3eb9ed52	0.36313874
83	0x3f0967a9	0.536738
84	0x3eb976cb	0.36223444
85	0x3edbdbaf	0.42941043
86	0x3e1af9e5	0.1513439
87	0x3ed31009	0.4122317
88	0x3ed78c6e	0.42099327
89	0x3f6b1212	0.9182445
90	0x3f5337da	0.825071
91	0x3f59ff26	0.8515495

convs.0.bn1.bias f4 [92]
0	0x3d862d50	0.065516114
1	0x3d6cceec	0.057814524
2	0x3cb9e0c8	0.022690192
3	0xbe1fa932	-0.15591887
4	0xbe5ce80a	-0.21572891
5	0xbe597ab5	-0.21238215
6	0xbecadd89	-0.39622143
7	0xbe59b434	-0.21260148
8	0x3df7d441	0.12101031
9	0xbdfea59b	-0.124339305
10	0xbeb78fdf	-0.35851952
11	0x3cf31ca3	0.029676741
12	0xbec772d1	-0.38954785
13	0xbe13fa3a	-0.14450923
14	0xbe00e0e0	-0.12585783
15	0xbea38d9a	-0.3194397
16	0xbe1074d5	-0.14107068
17	0x3d1458a0	0.036217332
18	0xbd67659a	-0.05649338
19	0xbe48a0fb	-0.19592659
20	0xbeae9e6c	-0.3410524
21	0xbf4e66ab	-0.8062541
22	0xbe543146	-0.20721921
23	0x3df851ff	0.121250145
24	0xbf0d62cc	-0.5522888
25	0xbeafe76e	-0.34356254
26	0xbe349d14	-0.17638046
27	0xbe37b39f	-0.17939614
28	0xbe9a6e77	-0.30162403
29	0xba604fdd	-0.00085568224
30	0xbc5e1582	-0.013554933
31	0x3d783097	0.060593214
32	0xbf2fc507	-0.68660015
33	0xbc2665df	-0.010156124
34	0xbcbd1d2b	-0.023085197
35	0xbd021b63	-0.0317644
36	0x3d245739	0.040122245
37	0xbebc3a7d	-0.36763373
38	0xbeb821a5	-0.3596317
39	0xbe5b19d6	-0.21396574
40	0x3d234255	0.03985818
41	0x3c0efc09	0.008727082
42	0xbde9e440	-0.11420488
43	0xbe999ca8	-0.30002332
44	0xbea7f541	-0.328043
45	0xbe1eadf4	-0.15496045
46	0x3bbc9d53	0.005756059
47	0x3c3ff37e	0.011715768
48	0x3d5cdca7	0.053921368
49	0x3d70d109	0.0587931
50	0xbdc03e14	-0.093868405
51	0xbdf0521b	-0.117344104
52	0xbe3be66f	-0.18349622
53	0xbea1634e	-0.31521076
54	0xbe07d2ff	-0.13264082
55	0xbdbdfe3b	-0.09277006
56	0xbe9ff2c1	-0.31239894
57	0xbcf2553d	-0.02958166
58	0xbda68e8d	-0.08132658
59	0xbd644b6c	-0.05573599
60	0xbcfc7885	-0.030819187
61	0xbe925637	-0.28581402
62	0xbe9b42ad	-0.30324307
63	0xbdd122e2	-0.102117315
64	0xbcefd87f	-0.029278038
65	0xbeb40a81	-0.35164264
66	0xbdaa291b	-0.083086215
67	0xbf14cd58	-0.5812583
68	0x3d3e6f5a	0.046492912
69	0x3ce97cfb	0.028501978
70	0xbf039b78	-0.514091
71	0xbe1d75e2	-0.15377
72	0xbed01079	-0.40637568
73	0xbd64c6f5	-0.055853803
74	0xbbb198a4	-0.0054198075
75	0xbb93c19a	-0.004509163
76	0xbd15b585	-0.036550064
77	0xbe18b809	-0.14913954
78	0xbed3b764	-0.41350853
79	0xbd8b2de4	-0.06795862
80	0xbe4311fb	-0.19049828
81	0xbd5f181f	-0.054466363
82	0x3dd41970	0.10356414
83	0xbe33fd7e	-0.17577168
84	0xbe06023d	-0.13086791
85	0xbda9c853	-0.08290162
86	0xbdd9e173	-0.10638704
87	0xbeacf6f3	-0.33782157
88	0x3e16bf23	0.1472135
89	0xbe100b2d	-0.14066763
90	0xbe8f3196	-0.2796752
91	0x3dabc531	0.08387221

convs.0.bn1.running_mean f4 [92]
0	0x3f15ae1d	0.584688
1	0xbe95daa4	-0.29268372
2	0xbf7efe2f	-0.99606603
3	0x3ede8cae	0.43466705
4	0x3cf9e325	0.030503819
5	0xbef6e7c0	-0.48223686
6	0xbed0e92b	-0.40802893
7	0xbf1a56d7	-0.6028876
8	0xbf11199e	-0.56679714
9	0x3f1d9f46	0.61571157
10	0xbe41a108	-0.18909085
11	0xbf83268d	-1.024614
12	0x3f1e0549	0.61726815
13	0xbe27e75c	-0.1639685
14	0xbe7b8128	-0.24560988
15	0xbe819fd8	-0.25317264
16	0x3fa37188	1.2769022
17	0xbe9f9190	-0.31165743
18	0xbb53a9c0	-0.0032297224
19	0xbf84d3f5	-1.0377184
20	0xbdcb565e	-0.099285826
21	0xbf48757b	-0.7830426
22	0xbf880a15	-1.0628077
23	0xbee2de27	-0.44310114
24	0xbf910814	-1.133059
25	0x3f003a80	0.50089264
26	0xbee2b6d0	-0.442801
27	0xbecca05e	-0.399661
28	0x3ef667ab	0.48125967
29	0xbf1079b3	-0.564357
30	0x3ccec59e	0.025240716
31	0xbf59e531	-0.85115343
32	0xbf5989c6	-0.8497585
33	0x3e618eba	0.22027102
34	0xbe981412	-0.29702812
35	0xbe5bd2e9	-0.21467175
36	0x3ed2ff08	0.41210198
37	0x3f13b3c4	0.57696176
38	0xbe6f040b	-0.23341386
39	0xbf0eda27	-0.55801624
40	0xbf71985c	-0.94373107
41	0xbf10d33c	-0.5657232
42	0xbe842c11	-0.2581487
43	0x3eb61821	0.35565284
44	0xbe934d99	-0.2877014
45	0xbee0c25d	-0.43898287
46	0x3f73a76e	0.9517735
47	0xbd3e1efe	-0.046416275
48	0xbf49a664	-0.78769517
49	0xbe2f4c38	-0.17118919
50	0x3de8231a	0.1133482
51	0x3e2042fc	0.15650553
52	0x3e53adf8	0.20671833
53	0xbf7dfbb3	-0.9921219
54	0xbeaccf4c	-0.33751905
55	0x3f747520	0.9549122
56	0xbea7f0eb	-0.32800993
57	0xbf1b5153	-0.60670966
58	0xbe15c746	-0.14626798
59	0x3d8ca13b	0.0686669
60	0x3e6ad046	0.22931013
61	0x3e8eaf8a	0.278683
62	0xbe40b3ef	-0.18818639
63	0x3efe95db	0.49723706
64	0x3e6f966d	0.23397227
65	0xbf59fe47	-0.8515362
66	0xbd84f520	-0.064920664
67	0xbf9ff223	-1.2495769
68	0xbec11bcc	-0.3771652
69	0xbe92ef1b	-0.28698048
70	0xbf438aac	-0.7638347
71	0x3e15f98c	0.14645976
72	0x3eb3fcba	0.35153753
73	0x3ebd2fa9	0.36950424
74	0x3f4fae50	0.81125355
75	0x3dcb8c6b	0.09938892
76	0xbe5cc917	-0.21561085
77	0xbe841bef	-0.25802562
78	0xbdd3230d	-0.1030942
79	0xbf0099ab	-0.5023448
80	0x3ede8ffb	0.43469223
81	0x3ee25747	0.44207212
82	0x3e061748	0.13094819
83	0xbd91868e	-0.071057424
84	0xbe624a33	-0.22098617
85	0x3e7976b6	0.24361691
86	0xbf2af6c7	-0.667828
87	0x3ebf285c	0.3733548
88	0xbe842a81	-0.25813678
89	0xbde9b3a0	-0.11411214
90	0x3e19551e	0.14973876
91	0xbf3a8e64	-0.7287352

convs.0.bn1.running_var f4 [92]
0	0x3fb310ea	1.3989537
1	0x3f38b9bd	0.72158414
2	0x3f2dc920	0.6788502
3	0x3fa5fe6c	1.2968268
4	0x400c9360	2.196495
5	0x3ffa7d16	1.9569423
6	0x3f8f495a	1.119426
7	0x402d838c	2.711154
8	0x400e5bca	2.2243524
9	0x400b1fea	2.1738229
10	0x3f532bf5	0.8248895
11	0x3fe668c2	1.800072
12	0x3fff6b5f	1.9954642
13	0x40907b55	4.515055
14	0x3fbb76ba	1.4645607
15	0x3fd00bd6	1.6253612
16	0x3f92386a	1.1423466
17	0x3f6d2597	0.9263548
18	0x3fbe25cb	1.4855283
19	0x3f99a510	1.2003498
20	0x3f70de8f	0.940896
21	0x40953515	4.6627297
22	0x4019bda1	2.402199
23	0x3f6263ab	0.8843333
24	0x405db655	3.4642537
25	0x3fb48ce8	1.4105501
26	0x401f9325	2.493356
27	0x3f8d4e6e	1.103956
28	0x401324f6	2.299131
29	0x400e3694	2.2220812
30	0x3fde79f7	1.7380971
31	0x3f95abe3	1.1693081
32	0x3fac7ea5	1.3476149
33	0x3fe18b71	1.7620679
34	0x3f6c427f	0.92288965
35	0x3fa04c1f	1.252323
36	0x3f2a71ec	0.6658008
37	0x3fc7f08a	1.5620282
38	0x3fc54afb	1.5413507
39	0x400fdf46	2.2480025
40	0x3f02859a	0.5098511
41	0x3ffdfe06	1.9843147
42	0x3ff18e7c	1.8871608
43	0x4035cdb3	2.84068
44	0x4003aeea	2.057551
45	0x401bb9e9	2.433222
46	0x402215c6	2.532579
47	0x3f32cbfa	0.69842494
48	0x3f9f702f	1.2456111
49	0x3f8800a6	1.0625198
50	0x402cc368	2.6994267
51	0x3fb0ba67	1.3806885
52	0x4000ad99	2.0105956
53	0x3fe4569b	1.783893
54	0x405ccece	3.4501224
55	0x3fe2308b	1.7671064
56	0x3f0f8adc	0.5607126
57	0x3fdf7df3	1.7460312
58	0x4011c23a	2.2774796
59	0x406caaa2	3.6979146
60	0x40064e98	2.098547
61	0x402c6e92	2.6942487
62	0x400064ae	2.006145
63	0x3fed06f7	1.851775
64	0x3f7ee1c7	0.9956326
65	0x400a80f0	2.1641197
66	0x3f87a67e	1.0597684
67	0x40aef153	5.4669585
68	0x3fa07347	1.253518
69	0x3f5d5cc6	0.86469686
70	0x4041bf8a	3.0273156
71	0x3f934671	1.1505872
72	0x405bd28b	3.4347255
73	0x3f7b72d7	0.98222107
74	0x3fd33d78	1.6503134
75	0x3fc9ed41	1.5775529
76	0x3fd01213	1.6255516
77	0x3fc3a54a	1.5284817
78	0x4005d8f0	2.0913658
79	0x4002b7fb	2.0424793
80	0x3f86d5ca	1.0533993
81	0x3fbab93f	1.4587783
82	0x3f767d84	0.9628527
83	0x3fd00dfe	1.625427
84	0x3fb612f3	1.4224533
85	0x40315692	2.7709088
86	0x3f8b0804	1.0861821
87	0x40459b62	3.0876088
88	0x3f564fc9	0.8371549
89	0x401ba9ce	2.432239
90	0x400dcc2c	2.2155867
91	0x3fbf949f	1.496723

convs.0.bn2.weight f4 [46]
0	0x3f447120	0.76735115
1	0x3f4d04af	0.8008527
2	0x3f16353b	0.58674973
3	0x3f54a891	0.8306971
4	0x3f75c57a	0.9600445
5	0x3edd62ab	0.4323934
6	0x3f059e04	0.5219424
7	0x3f188687	0.5958027
8	0x3f25a2a8	0.6470132
9	0x3f712a24	0.94204926
10	0x3edb5fcc	0.42846525
11	0x3f22436b	0.6338412
12	0x3e1512f7	0.14558016
13	0x3f43daa4	0.76505494
14	0x3f556199	0.8335205
15	0x3eb80fad	0.3594946
16	0x3f07b216	0.5300611
17	0x3f6414df	0.89094347
18	0x3f1a4801	0.6026612
19	0x3f3272f9	0.69706684
20	0x3f79db30	0.9760008
21	0xbee69ca4	-0.45041382
22	0x3e586ca1	0.21135189
23	0x3f17df25	0.59324867
24	0xbe69dc18	-0.22837865
25	0x3f0968ec	0.53675723
26	0x3e420b5e	0.18949649
27	0x3eea224a	0.45729285
28	0x3f8eed54	1.1166177
29	0x3e70e10d	0.2352335
30	0x3e63d7f0	0.22250342
31	0x3f0f9ce0	0.5609875
32	0x3f740126	0.9531425
33	0x3f4151bd	0.7551535
34	0x3eafc362	0.34328753
35	0x3e935f19	0.2878349
36	0x3e8fdead	0.28099576
37	0x3e5712ab	0.21003215
38	0x3f5d4f02	0.8644868
39	0x3f55de41	0.8354226
40	0x3f0a50e3	0.54029673
41	0x3f6db4be	0.92853916
42	0x3f2a83e3	0.66607493
43	0x3f2a79fa	0.6659237
44	0x3ebb37dc	0.36566055
45	0x3f5c2a14	0.86001706

convs.0.bn2.bias f4 [46]
0	0xbd2b6178	-0.041841
1	0xbe5fe0cb	-0.21863095
2	0xbdf424ff	-0.11921119
3	0xbe1cea07	-0.1532365
4	0xbe84e537	-0.25956127
5	0xbe278578	-0.16359508
6	0xbdc941cd	-0.09827004
7	0x3c82934c	0.015939377
8	0x3cb59ca4	0.022169419
9	0xbd1cf34a	-0.038317956
10	0xbe9b158c	-0.30289876
11	0xbdeee3f9	-0.11664576
12	0x3e30926a	0.17243353
13	0xbcc8b3d2	-0.024499808
14	0xbe11afbe	-0.14227197
15	0xbe461d10	-0.19347024
16	0xbd176edc	-0.036970958
17	0xbdebb54d	-0.1150919
18	0xbe07df56	-0.1326879
19	0xbe4e3447	-0.2013713
20	0xbe3abd0f	-0.18236183
21	0xbe03a41e	-0.12855574
22	0x3d02282d	0.031776596
23	0xbdd94a95	-0.106099285
24	0x3ec830c3	0.39099702
25	0xbd94b354	-0.072607666
26	0xbd707dd9	-0.058713768
27	0xbe4b7f1f	-0.19872712
28	0xbd9680f9	-0.07348818
29	0x3c3076fa	0.010770554
30	0xbe0fb9a9	-0.14035667
31	0xbd81426e	-0.063114986
32	0x3e1ee541	0.15517141
33	0xbe45c5a5	-0.19313677
34	0xbe560655	-0.20900853
35	0xbe0e34b2	-0.13887289
36	0xbe40591a	-0.1878399
37	0xbe3378fb	-0.17526619
38	0xbe44f7d9	-0.19235171
39	0xbe4f7a93	-0.20261602
40	0xbe2e3258	-0.17011392
41	0xbd0bf434	-0.034168437
42	0xbdd11400	-0.10208893
43	0x3e3a7d53	0.1821187
44	0x3d972dd8	0.07381791
45	0xbd1cfb10	-0.03832537

convs.0.bn2.running_mean f4 [46]
0	0x405d9316	3.4621024
1	0x3facd4ea	1.3502476
2	0x40739fb1	3.8066218
3	0x40337dab	2.8045452
4	0x3e100dd3	0.14067774
5	0x3fa38dce	1.277765
6	0x3ea78506	0.32718676
7	0x3f8e5b1d	1.1121556
8	0x3ef65e9c	0.48119056
9	0x3f51b14e	0.8191117
10	0x3e4aae7a	0.1979312
11	0x3fcc1510	1.5943928
12	0x3f5262e7	0.82182163
13	0x3ff84b54	1.9397988
14	0x3ff9b968	1.9509706
15	0x3f34705e	0.7048396
16	0x3f62d694	0.8860867
17	0x3fd4ec7c	1.6634669
18	0x3ef6f5e4	0.48234475
19	0x3e9e086c	0.308658
20	0x3f565efe	0.83738697
21	0x3e14da92	0.14536503
22	0x406a429b	3.6603153
23	0x3f6203d5	0.882871
24	0x3e4245a1	0.18971874
25	0x3d3246e0	0.043524623
26	0x3eac1cd9	0.3361576
27	0x3f3e8a2f	0.744296
28	0x4006453a	2.0979753
29	0x4032293b	2.7837665
30	0x400adab3	2.1695983
31	0x3f840573	1.0314163
32	0x3ccd5b36	0.025067907
33	0x3f1e4230	0.61819744
34	0x3f1e7fdb	0.6191384
35	0x4016e8e8	2.3579655
36	0x3fcee324	1.6163068
37	0x3f71fb7f	0.9452438
38	0x3f0615ca	0.52377
39	0x3f689c54	0.9086354
40	0x3e36c023	0.17846732
41	0x3ebb7eca	0.3662017
42	0x3fc44956	1.533488
43	0x3fef0dde	1.8676107
44	0x3f8be814	1.09302
45	0x400fed99	2.2488768

convs.0.bn2.running_var f4 [46]
0	0x419c1ff0	19.515594
1	0x408768b3	4.2315307
2	0x41dbd7dd	27.480402
3	0x418243b3	16.283056
4	0x3da71c4f	0.08159696
5	0x40605587	3.5052202
6	0x3e84e195	0.25953355
7	0x3fddd6cd	1.7331177
8	0x3e8f9259	0.28041342
9	0x3f7a8d0d	0.97871476
10	0x3f09b2f9	0.53788716
11	0x4092f64e	4.5925665
12	0x3fe0a139	1.7549201
13	0x409c9230	4.892845
14	0x408b63c3	4.355928
15	0x3f87bf1d	1.0605198
16	0x406ab486	3.6672683
17	0x40bc4ac0	5.8841248
18	0x3ee1bd26	0.4408962
19	0x3f3bd4e8	0.73371744
20	0x3fe22e71	1.7670423
21	0x3dc4a895	0.09602467
22	0x41db9617	27.448286
23	0x3fbddea8	1.4833574
24	0x3ee4f727	0.44719812
25	0x3c22a997	0.009928129
26	0x3f43bab8	0.76456785
27	0x3f9f20f4	1.2431931
28	0x40ab88ec	5.360464
29	0x415b61cd	13.711377
30	0x40fc2644	7.879671
31	0x40147f76	2.3202796
32	0x3c2c4701	0.0105149755
33	0x3f0af260	0.54276085
34	0x3f47fff2	0.78124917
35	0x40f5bf3a	7.679593
36	0x40804a58	4.009075
37	0x3fd2198b	1.6414045
38	0x3f7a81b5	0.9785417
39	0x3fde7274	1.7378678
40	0x3e956265	0.29176632
41	0x3e6efa67	0.23337708
42	0x40203f61	2.5038683
43	0x4099a767	4.801685
44	0x4047ddfe	3.1229243
45	0x4103857a	8.220087

convs.1.fc_full.weight f4 [92, 98]
0	0xbe6fe307	-0.23426448
1	0x3d051100	0.032486916
2	0x3d5c4ecb	0.05378608
3	0x3c4c6589	0.01247538
4	0x3e7018bc	0.23446935
5	0x3e3e49ce	0.18582842
6	0x3dc0a0fc	0.09405705
7	0xbdb39c35	-0.087700285
8	0x3ebae28e	0.36500973
9	0xbd973fd9	-0.07385225
10	0xbd82d97f	-0.0638914
11	0x3df09138	0.11746448
12	0x3e7f43fd	0.24928279
13	0x3c3aa284	0.011391286
14	0xbcf613a1	-0.030038657
15	0xbe61c750	-0.22048688
16	0xbd242bc5	-0.040080804
17	0xbe1508cd	-0.14554138
18	0xbd7792db	-0.060442787
19	0xbe2ed872	-0.17074755
20	0xbe3b8bbd	-0.18315025
21	0xbd78af73	-0.060714196
22	0x3db0b9a1	0.08629156
23	0x3dd51cfc	0.10405919
24	0x3f0eddc2	0.55807126
25	0x3e58986e	0.21151897
26	0xbd92cd46	-0.07168059
27	0x3dc53e97	0.09631079
28	0xbd678f0c	-0.056532905
29	0x3d5bc769	0.05365697
30	0x3e07c314	0.1325801
31	0xbe91a54f	-0.28446433
32	0x3d086004	0.033294693
33	0xbd99c381	-0.075079925
34	0xbe516291	-0.20447756
35	0x3e36d058	0.17852914
36	0xbd214992	-0.039376803
37	0x3e2d7f24	0.16943032
38	0x3e7d16c3	0.24715714
39	0xbe40aa8d	-0.1881506
40	0x3df605f3	0.120128535
41	0xbd432794	-0.047645167
42	0xbdb4fbbd	-0.08837078
43	0xbe179599	-0.1480316
44	0x3e8d6641	0.27617076
45	0x3e35783a	0.17721644
46	0xbe164413	-0.14674406
47	0xbe265816	-0.1624454
48	0x3dcce7df	0.100051634
49	0xbbd7a12d	-0.006580493
50	0x3dfcf993	0.1235229
51	0x3dbc8219	0.09204502
52	0x3c24aa0c	0.010050308
53	0x3eb9ee1e	0.36314481
54	0x3df6bce4	0.12047747
55	0x3d144664	0.036199942
56	0xbe5f4b3d	-0.21806045
57	0x3e56d9da	0.20981541
58	0x3e42c02d	0.19018622
59	0x3dd4f608	0.10398489
60	0xbddf3989	-0.10899646
61	0xbe760d79	-0.24028577
62	0x3dac59f7	0.08415597
63	0x3d8e1ebb	0.06939455
64	0xbdec1fc3	-0.115294956
65	0x3d238f40	0.039931536
66	0x3dce0480	0.10059452
67	0xbde49af6	-0.11162369
68	0xbb192632	-0.0023368713
69	0x3e228e72	0.15874651
70	0x3d96fe0a	0.07372673
71	0x3ea6bdbf	0.3256664
72	0xbe7d6276	-0.24744591
73	0x3d3de451	0.046360318
74	0xbdccc0d1	-0.09997714
75	0xbde7a2f2	-0.11310376
76	0xbe4e44d3	-0.20143442
77	0xbe8be13d	-0.2732028
78	0x3d2d0281	0.042238716
79	0xbd557ae9	-0.05211917
80	0xbd0a693c	-0.033791766
81	0x3d182bfd	0.037151325
82	0xbb995587	-0.004679385
83	0x3cfcd854	0.030864872
84	0x3e926634	0.285936
85	0xbdde347b	-0.108498536
86	0xbd7992d6	-0.06093105
87	0x3e0d4eec	0.13799638
88	0xbd9cc243	-0.0765424
89	0xbde3dc67	-0.11126023
90	0x3dce2a5b	0.100666724
91	0x3e2bf8e3	0.16794161
92	0x3e4cb441	0.19990636
93	0x3edbe31f	0.42946717
94	0x3e1304a8	0.14357245
95	0xbeee37b6	-0.4652688
96	0xbeb02cfe	-0.34409326
97	0xbe56297b	-0.20914261
98	0x3cbe6665	0.023242185
99	0x3db41823	0.08793666
100	0xbea93abd	-0.33052626
101	0xbd8ec240	-0.06970644
102	0xbd889af3	-0.06670179
103	0xbe3cd70d	-0.1844141
104	0x3e3b5114	0.18292648
105	0x3d593fb7	0.05303928
106	0xbdc499c4	-0.09599641
107	0xbe49e2e8	-0.19715464
108	0xbdd304c3	-0.103036426
109	0x3d99906b	0.07498249
110	0xbe0e45f3	-0.13893871
111	0xbe5c7da8	-0.21532309
112	0xbec9ab14	-0.39388335
113	0xbe20078e	-0.15627882
114	0x3d8529f0	0.065021396
115	0x3deda38f	0.11603462
116	0x3b5dda73	0.003385213
117	0x3e292ec9	0.16521753
118	0x3cad9220	0.021187842
119	0xbe9d7271	-0.30751374
120	0xbe60fa07	-0.21970378
121	0x3ca13a17	0.01968102
122	0x3e2da984	0.16959196
123	0x3d9743b2	0.07385959
124	0xbda58612	-0.080822125
125	0xbd705304	-0.05867292
126	0xbda00915	-0.07814232
127	0xbd86397e	-0.065539345
128	0xbe4183e9	-0.18897976
129	0xbdd2aa45	-0.102863826
130	0x3df1f466	0.118141934
131	0xbd15ffa7	-0.036620762
132	0x3de44537	0.11146014
133	0xbd905797	-0.070479564
134	0x3da6c923	0.081438325
135	0xbc1261df	-0.008934467
136	0x3e45671c	0.19277614
137	0x3e6e95eb	0.23299377
138	0x3d1eae80	0.038740635
139	0x3e00e77a	0.12588301
140	0x3de1fb25	0.1103423
141	0x3cfd2a95	0.030904094
142	0xbd3ad126	-0.045609616
143	0xbbdb5c92	-0.006694385
144	0xbc6e8a14	-0.014559288
145	0xbcc3b248	-0.023888722
146	0x3d10bdb4	0.035337165
147	0xbd2d0503	-0.042241108
148	0x3b25aeb3	0.002528113
149	0xbe500618	-0.20314825
150	0xbd40e911	-0.04709727
151	0xbe11ff8a	-0.14257637
152	0xbd0f18d6	-0.034935795
153	0x3db509be	0.08839749
154	0xbdfcccd3	-0.123437546
155	0x3de4a16f	0.111636035
156	0x3e13c590	0.14430833
157	0xbc863e4e	-0.016387131
158	0xbdc6eb32	-0.09712829
159	0x3e4e8c9c	0.20170826
160	0xbcbe7f25	-0.023253987
161	0xbe2affd8	-0.16699159
162	0x3c9eddf8	0.019392952
163	0x3de6dd6b	0.11272701
164	0x3dc258be	0.094895825
165	0xbed4e8f7	-0.41583988
166	0xbc692002	-0.014228823
167	0xbd409c5b	-0.047024112
168	0x3de6113f	0.11233758
169	0xbe059b21	-0.13047458
170	0x3d077e22	0.033079274
171	0x3c9f7cb9	0.019468652
172	0xbc1a402e	-0.009414716
173	0x3c22faf6	0.009947529
174	0xbe1af99d	-0.15134282
175	0x3e30e75d	0.17275758
176	0x3c8a4d1b	0.01688247
177	0xbcae7737	-0.02129708
178	0x3e388393	0.18018942
179	0xbd9d6495	-0.076852
180	0x3d95d8d2	0.07316746
181	0xbd630e8b	-0.05543379
182	0xbda57e4b	-0.08080729
183	0xbea61009	-0.3243411
184	0x3da780a0	0.0817883
185	0x3d17d0f6	0.037064515
186	0x3e16449a	0.14674607
187	0xbcbb6881	-0.02287698
188	0xbe94d437	-0.29068157
189	0x3dd5b6c5	0.10435251
190	0x3e45fd8e	0.19335005
191	0x3d6f6536	0.05844613
192	0xbe76070b	-0.24026124
193	0xbcefcea1	-0.029273333
194	0xbca0b812	-0.019619022
195	0xbd85697e	-0.06514262
196	0x3de1115c	0.10989639
197	0xbcb4d2ce	-0.022073176
198	0xbcac2930	-0.021015733
199	0xbe649d45	-0.22325619
200	0xbe8583c3	-0.2607709
201	0xbbd26008	-0.006420139
202	0x3d6824df	0.056675788
203	0xbdef201f	-0.116760485
204	0xbc08c5cb	-0.008347939
205	0x3c96214f	0.01832643
206	0x3c7cc420	0.015427619
207	0xbdfad613	-0.12247863
208	0x3e6b52a7	0.22980748
209	0x3de975ab	0.113993965
210	0xbcdeb322	-0.027185027
211	0xbe341de8	-0.17589533
212	0x3ba61dea	0.005069484
213	0x3dee41b5	0.11633626
214	0x3d55ff0f	0.052245196
215	0xbd63f934	-0.05565758
216	0x3d2adde7	0.04171553
217	0xbd76a7c5	-0.06021859
218	0x3e17cd91	0.14824511
219	0xbd0135ac	-0.031545326
220	0xbdeca1fe	-0.11554335
221	0x3da00df7	0.078151636
222	0xbd2e9a1c	-0.04262744
223	0xbc3c05c0	-0.01147598
224	0xbc7fd2ad	-0.015614194
225	0xbcbab976	-0.022793513
226	0xbdf72a19	-0.12068576
227	0x3d348fea	0.04408256
228	0x3d3e4a3c	0.046457514
229	0xbe32ced2	-0.17461708
230	0xbeba5fd1	-0.36401227
231	0x3d467ddb	0.04845987
232	0xbbc41c3a	-0.00598481
233	0xbd4a4bdd	-0.049388755
234	0xbde5d8a7	-0.11222964
235	0xbdd2734a	-0.10275896
236	0x3d4271f8	0.04747197
237	0xbc70a205	-0.014687066
238	0x3e59a3c6	0.21253881
239	0xbcc969c5	-0.024586568
240	0x3da6e700	0.081495285
241	0xbd85b65f	-0.06528925
242	0xbd4fbb6a	-0.05071584
243	0x3d2d0554	0.04224141
244	0xbcdf3d53	-0.027250921
245	0xbd52b5dd	-0.05144297
246	0xbdb41363	-0.0879276
247	0xbc3f1dbb	-0.011664803
248	0x3e525dee	0.20543644
249	0x3e440b71	0.1914499
250	0xbdb9e55e	-0.090769514
251	0xbc887e51	-0.016661795
252	0xbdfdd826	-0.12394743
253	0x3cbd6402	0.023118977
254	0x3dda4179	0.10657019
255	0xbd7a91be	-0.061174147

convs.1.fc_full.bias f4 [92]
0	0x3d0ef833	0.03490467
1	0xbd5a899e	-0.0533539
2	0x3c821280	0.015877962
3	0xbda5b0a2	-0.08090331
4	0x3cf2ad23	0.029623574
5	0x3d30237f	0.0430026
6	0xbc810f1a	-0.015754271
7	0xbd562e7b	-0.05229042
8	0xbcdd2908	-0.026997104
9	0xbde35b8b	-0.11101445
10	0xbdb0e49b	-0.08637353
11	0xbb9bc019	-0.0047531244
12	0xbaae6a52	-0.0013306832
13	0xbd976b57	-0.0739352
14	0xbca5af54	-0.020225205
15	0x3db20805	0.08692936
16	0xbd9daf5d	-0.076994635
17	0x3db6a751	0.08918632
18	0x3cc159a7	0.02360232
19	0xbd78eb8c	-0.06077151
20	0xbd05693a	-0.032571055
21	0xbca29321	-0.019845547
22	0x39aef98e	0.000333738
23	0x3d0045a5	0.03131642
24	0xbdcee16c	-0.101015896
25	0x3cf9a6e6	0.030475091
26	0x3dcdcc9f	0.10048794
27	0xbdbd62b3	-0.09247341
28	0xbdc15685	-0.094403304
29	0xbd7ba3f8	-0.06143567
30	0xbd490992	-0.049081393
31	0xbc0cfc68	-0.0086051
32	0xbda01f81	-0.07818509
33	0x3d81e31e	0.06342147
34	0x3dba79dc	0.09105274
35	0x3b13320a	0.0022460246
36	0xbde8a5ad	-0.11359725
37	0xb9ab5053	-0.00032675508
38	0xbd94f761	-0.07273746
39	0x3d6b1fe7	0.05740347
40	0xbdcc50c0	-0.09976339
41	0xbc839631	-0.016062828
42	0x3e323122	0.17401555
43	0xbdcabaa2	-0.09898879
44	0xbdac5ae2	-0.08415772
45	0xbd9fb88d	-0.07798872
46	0xbdba7d85	-0.09105972
47	0x3caaf9f4	0.02087114
48	0xbd25a23f	-0.040437933
49	0xbd9f8caf	-0.07790505
50	0xbd81d9f9	-0.06340403
51	0x3c884f5e	0.016639408
52	0xbd31fe9a	-0.043455698
53	0x3dd4d6fa	0.10392566
54	0x3c6c0610	0.014405742
55	0xbe0d139d	-0.13777013
56	0xbcf2ee9b	-0.029654792
57	0xbdaa3565	-0.083109654
58	0xbd0bb350	-0.034106553
59	0xbd89da32	-0.067310706
60	0xbd65678d	-0.056006957
61	0xbdc58a29	-0.096454926
62	0x3e012561	0.12611915
63	0xbcfd949a	-0.030954648
64	0xbd254163	-0.04034556
65	0x3c8fda32	0.017560098
66	0xbd8aebdd	-0.067832686
67	0x39d26a47	0.00040133504
68	0xbd06c5a7	-0.03290334
69	0x3d9f2b87	0.07771974
70	0x3da00531	0.0781349
71	0x3cebcd29	0.028784351
72	0xbc5f35a8	-0.0136236325
73	0xbcd0275e	-0.025409397
74	0xbd8816e7	-0.06644993
75	0xbd90a006	-0.07061772
76	0x3da43221	0.08017374
77	0x3ddca514	0.10773674
78	0x3dab2f96	0.08358686
79	0x3d39140b	0.04518513
80	0x3cb0d6b0	0.021586746
81	0x3d60c5a9	0.054876003
82	0xbda3b8aa	-0.07994206
83	0xbdb01a1f	-0.08598732
84	0xbd803707	-0.06260496
85	0xbdaf92bd	-0.0857291
86	0xbc04cccd	-0.008105469
87	0xbd1e1aa1	-0.038599614
88	0x3cc367ce	0.023853209
89	0x3dc1c575	0.0946149
90	0xbda8cd60	-0.08242297
91	0xbc7f2afd	-0.015574214

convs.1.bn1.weight f4 [92]
0	0x3f29f342	0.66386807
1	0x3f87b745	1.0602804
2	0x3f2564eb	0.64607114
3	0xbce52468	-0.027971461
4	0x3f29b9be	0.66299045
5	0x3e60466a	0.21901861
6	0x3f6d038a	0.92583525
7	0x3f4aa48c	0.7915733
8	0x3e733102	0.23749164
9	0x3f35a73d	0.7095831
10	0x3ee9f2d4	0.45693076
11	0x3f00301a	0.500734
12	0x3f5c595b	0.86073846
13	0x3f0f51bb	0.55984086
14	0x3f2cce01	0.67501837
15	0x3ebbabec	0.36654603
16	0x3fa37493	1.2769951
17	0x3fa7dd97	1.3114499
18	0x3f27c650	0.65536976
19	0x3e5fec3c	0.2186746
20	0x3f4447c3	0.76672
21	0x3fa323b3	1.274527
22	0x3faa8a85	1.3323523
23	0x3f89d23c	1.0767283
24	0x3fcb13a2	1.5865366
25	0x3f2f2faa	0.68432105
26	0x3f061144	0.52370095
27	0x3f5cb233	0.8620941
28	0x3e235cb6	0.15953335
29	0x3f887367	1.0660218
30	0x3f110805	0.5665286
31	0x3faff88c	1.3747725
32	0x3fb49c8d	1.4110276
33	0x3fbd4a5e	1.478832
34	0x3f445263	0.7668821
35	0x3e5fdcec	0.21861619
36	0x3fb36c65	1.4017454
37	0x3f3a13a8	0.72686243
38	0x3f14386d	0.578986
39	0x3f93a2ff	1.1534117
40	0x3eca86ca	0.3955596
41	0x3f207c5c	0.6268976
42	0x3f435e9c	0.7631624
43	0x3dfda9b5	0.12385885
44	0x3f4605cf	0.77352613
45	0x3f9c34e9	1.2203647
46	0x3e660be4	0.22465473
47	0x3f476ed6	0.779035
48	0x3f1c4a18	0.6105056
49	0x3f4bbf32	0.79588616
50	0x3eaa900d	0.33313027
51	0x3e81aef1	0.25328782
52	0x3f1390fd	0.5764311
53	0x3f453a76	0.7704233
54	0x3f16cf48	0.58910036
55	0x3e9be457	0.30447647
56	0x3f14151d	0.57844716
57	0x3ec93be3	0.39303502
58	0x3f097c7f	0.5370559
59	0xbd74f9ea	-0.05980865
60	0x3f23ce4f	0.63986677
61	0x3eb28976	0.348705
62	0x3ea1c0e8	0.31592488
63	0x3fac7288	1.3472452
64	0x3e9aa279	0.30202082
65	0x3f55e8a0	0.8355808
66	0x3ed6589d	0.41864482
67	0x3f08eba2	0.5348455
68	0x3fa1175d	1.2585255
69	0x3f1d93ab	0.6155345
70	0x3f4160b8	0.75538206
71	0x3e4e611d	0.20154233
72	0x3f4d483b	0.8018834
73	0x3edf1402	0.43569952
74	0x3f0b1d62	0.5434171
75	0x3f8af44d	1.0855805
76	0x3e05d359	0.13068904
77	0x3ded4b2c	0.115866035
78	0x3f0c7be6	0.54876554
79	0x3eec6c52	0.46176392
80	0x3f60792c	0.87684894
81	0x3f068842	0.5255166
82	0x3e9af3a1	0.30264
83	0x3f41aa5f	0.7565059
84	0x3ee2f497	0.44327232
85	0x3ee61923	0.44941053
86	0x3f6c97b2	0.9241897
87	0xbdbd3f57	-0.09240597
88	0x3edb8403	0.42874154
89	0x3e3d1f57	0.18468986
90	0x3f3abc10	0.7294321
91	0x3f9b2915	1.2121912

convs.1.bn1.bias f4 [92]
0	0xbee30194	-0.44337142
1	0x3c2c4452	0.010514336
2	0x3ce241de	0.027619299
3	0x3f33c174	0.7021706
4	0xbe45ffa4	-0.193358
5	0x3dd1168a	0.10209377
6	0xbe95d724	-0.29265702
7	0x3e15d644	0.14632517
8	0xbd83b697	-0.064313106
9	0xbf814a30	-1.0100765
10	0xbe7c69d4	-0.24649745
11	0x3c4ec6d0	0.012620643
12	0xbf472e97	-0.77805465
13	0xbe153583	-0.14571194
14	0x3e202311	0.15638377
15	0xbd2b2e2b	-0.041792076
16	0xbe03fcc6	-0.12889394
17	0xbe44e34c	-0.19227332
18	0xbe30726e	-0.17231151
19	0x3db4d9d0	0.08830607
20	0x3cb65975	0.022259453
21	0xbdc26769	-0.0949238
22	0x3e90b05b	0.2825955
23	0xbe6b8f33	-0.23003845
24	0xbe9994e3	-0.29996404
25	0xbd4c44c9	-0.049870286
26	0x3d72354c	0.05913286
27	0xbe983143	-0.29725084
28	0xbb17c1c7	-0.0023156272
29	0x3d8cc56c	0.06873593
30	0xbe29afd3	-0.16570978
31	0xbdccad88	-0.09994036
32	0xbe4eaeee	-0.20183918
33	0xbe4a6a33	-0.19767074
34	0xbe17bb2f	-0.14817499
35	0x3d05448d	0.03253608
36	0xbe9cb55b	-0.30607113
37	0xbe08464f	-0.1330807
38	0xbbd7dbfb	-0.006587503
39	0xbe3bba98	-0.18332899
40	0x3d1b4528	0.03790775
41	0xbe908b23	-0.28231153
42	0xbf1f1e0b	-0.62155217
43	0xbe6d0ac6	-0.23148641
44	0xbe3c89e4	-0.18411976
45	0xbe0e5b83	-0.13902096
46	0xbed0bef5	-0.4077069
47	0xbd6e1bf6	-0.058132134
48	0xbd151320	-0.036395192
49	0x3e2cf57b	0.16890518
50	0xbead6881	-0.33868793
51	0x3d322510	0.043492377
52	0xbec510b3	-0.38489303
53	0xbcabdd8b	-0.020979663
54	0xbdc5d799	-0.096602626
55	0xbf280c3b	-0.6564366
56	0xbddae008	-0.10687262
57	0xbe5b74e5	-0.2143131
58	0xbe830a37	-0.2559373
59	0xbe48749b	-0.19575731
60	0x3de5caae	0.11220299
61	0xbdc0daff	-0.0941677
62	0xbe9cf938	-0.3065889
63	0xbcf8dbe9	-0.030378299
64	0xbe5a8f8b	-0.2134382
65	0xbe4f8466	-0.2026535
66	0xbe5be5d0	-0.21474385
67	0xbe8a44fa	-0.2700575
68	0x3d0b0a10	0.033945143
69	0xbec7afa0	-0.3900118
70	0xbec9822b	-0.39357123
71	0x3e4f9ca0	0.20274591
72	0xbc123ba9	-0.008925357
73	0xbdc738bf	-0.0972762
74	0xbe54a5b6	-0.20766339
75	0xbd3d0fd2	-0.046157666
76	0xbe2c4de5	-0.1682659
77	0x3c339533	0.010960865
78	0xbe89b205	-0.2689363
79	0xbe4b5c37	-0.19859396
80	0xbe6f2444	-0.23353678
81	0xbdd9b236	-0.10629694
82	0xbdd9f62e	-0.10642658
83	0xbe3b12e7	-0.1826893
84	0x3d854667	0.06507569
85	0xbe776d8d	-0.24162884
86	0xbc9d3da1	-0.019194426
87	0xbe81a89b	-0.25323948
88	0xbeb7bd50	-0.3588662
89	0xbe1fae8e	-0.15593931
90	0xbe879805	-0.2648317
91	0x3c9cf04f	0.019157557

convs.1.bn1.running_mean f4 [92]
0	0x3f961406	1.1724861
1	0xbe1c7515	-0.15279038
2	0xbebb8631	-0.36625817
3	0x3ed277a0	0.41106892
4	0xbf45de94	-0.7729275
5	0xbf7ac90b	-0.9796302
6	0x3dceae44	0.10091832
7	0xbf999a79	-1.2000266
8	0x3e40e1dc	0.18836159
9	0xbf206c21	-0.6266499
10	0xbf9742fd	-1.1817318
11	0xbebb07d4	-0.3652941
12	0x3e90b25c	0.28261077
13	0xbed23f3a	-0.41063863
14	0xbee0a9be	-0.43879503
15	0xbf1fa84d	-0.6236618
16	0xbf7f3dfd	-0.9970396
17	0x3f4e41c3	0.80569094
18	0xbef5c782	-0.48003775
19	0xbf31edbb	-0.6950337
20	0xbf2cf5ed	-0.6756275
21	0xbed24bc8	-0.41073442
22	0xbf8c75f5	-1.0973498
23	0x3f8edf9a	1.1161988
24	0x3f29e225	0.66360694
25	0xbfa1d175	-1.2642046
26	0xbf909110	-1.129427
27	0xbe5b42db	-0.21412222
28	0x3f0a9440	0.5413246
29	0xbd82d152	-0.06387581
30	0xbf287451	-0.65802485
31	0x3ee1f5c1	0.44132808
32	0xbe407099	-0.18792953
33	0x3f4efdaf	0.8085584
34	0xbf73f122	-0.95289814
35	0x3ea0f3d2	0.3143602
36	0xbfbbd155	-1.4673258
37	0xbfc1f681	-1.5153352
38	0xbe3a438e	-0.18189833
39	0xbf1f6b21	-0.6227284
40	0x3ddf402b	0.10900911
41	0x3e35d695	0.17757638
42	0xbfa16af8	-1.2610769
43	0x3f157757	0.58385223
44	0xbf834c7a	-1.0257714
45	0x3e06822c	0.13135594
46	0x3f55ddf9	0.8354183
47	0xbf304c0a	-0.68866026
48	0xbf72f428	-0.949038
49	0xbf86abd2	-1.0521185
50	0xbebaa834	-0.36456454
51	0xbf7c061d	-0.9844683
52	0xbebf831c	-0.37404716
53	0x3d9771b8	0.07394737
54	0x3e1d4e11	0.15361811
55	0xc00436ac	-2.065837
56	0xbeed772f	-0.46379992
57	0xbdf6e9af	-0.1205629
58	0xbfbb1cfd	-1.4618222
59	0x3e89a318	0.26882243
60	0x3eb1be4f	0.34715506
61	0xbf9beee0	-1.2182274
62	0xbf091f38	-0.5356326
63	0xbe835525	-0.25650898
64	0xbea80313	-0.32814845
65	0xbf3e964a	-0.7444807
66	0xbefcc2db	-0.49367413
67	0xbe9d72ab	-0.30751547
68	0xbf33ecc6	-0.7028316
69	0xbeab5a6f	-0.33467433
70	0x3fb489f6	1.4104602
71	0xbf77a3a2	-0.9673406
72	0xbf9793b5	-1.1841952
73	0xbf6a937c	-0.91631293
74	0x3f14e0c1	0.5815545
75	0x3e94e7f5	0.2908322
76	0xbeaef732	-0.3417297
77	0xbfa008f2	-1.250273
78	0x3e8d5163	0.27601156
79	0xbd01a863	-0.031654727
80	0xbef9794e	-0.4872536
81	0x3dbd013e	0.092287526
82	0xc00536d2	-2.081471
83	0xbfc53f62	-1.5409968
84	0xbec9f7e5	-0.3944694
85	0xbf874c07	-1.0570077
86	0x3f11b2b7	0.5691332
87	0x3b9e2e50	0.004827298
88	0xbfd93871	-1.697035
89	0x3f0fd8fe	0.5619048
90	0xbf998327	-1.199315
91	0xbf00d65f	-0.50327104

convs.1.bn1.running_var f4 [92]
0	0x3f5790e7	0.8420548
1	0x3f17d604	0.59310937
2	0x3eebf317	0.460839
3	0x40014af5	2.0202
4	0x3faaeb71	1.3353101
5	0x3f78ab07	0.97135967
6	0x3fc6eef1	1.5541669
7	0x3f55c91a	0.8350998
8	0x4013807c	2.304717
9	0x401071e7	2.256952
10	0x3f912120	1.1338234
11	0x3f5a4ae1	0.85270506
12	0x4094a0e5	4.6446404
13	0x3ff27c6f	1.8944224
14	0x3f63755c	0.8885095
15	0x3f554f3a	0.83324015
16	0x3f899f77	1.075179
17	0x3f9fd95e	1.248821
18	0x3f5fb7f9	0.87390095
19	0x4008c204	2.1368418
20	0x3f578d62	0.8420011
21	0x3f8c717f	1.0972136
22	0x3f4ad3af	0.79229254
23	0x3fb9feba	1.4530861
24	0x3fb33ddf	1.4003257
25	0x3f739766	0.9515289
26	0x3fa9b456	1.3258159
27	0x3f60b18a	0.87770903
28	0x3ffd92f6	1.9810474
29	0x3f47b7f4	0.78015065
30	0x3ea27c75	0.31735578
31	0x3f550c72	0.83222115
32	0x3f22ab02	0.6354219
33	0x3f938776	1.1525714
34	0x3f6fc586	0.9366077
35	0x3f8cc07c	1.0996242
36	0x3f5bbe35	0.8583711
37	0x3f80f90d	1.0076004
38	0x3f2fb19e	0.686304
39	0x3f9bfd18	1.2186613
40	0x3f5d03f0	0.86334133
41	0x3f92f4bd	1.1480938
42	0x3f85e859	1.0461532
43	0x3ee1fd5c	0.4413861
44	0x3f9fb8a9	1.2478229
45	0x3fcf40b2	1.6191618
46	0x3f85b646	1.044625
47	0x3f1599bb	0.584377
48	0x3f06e9ac	0.52700305
49	0x3fac9653	1.3483375
50	0x3fb0d705	1.3815619
51	0x3f94f363	1.1636776
52	0x3fd7313d	1.6811901
53	0x3f55dcbf	0.83539957
54	0x3fcdf332	1.6089842
55	0x3f8ea4ae	1.1144006
56	0x3f0bdc15	0.54632694
57	0x3f8f759a	1.1207764
58	0x407a5c0b	3.9118679
59	0x3f8e6eec	1.1127601
60	0x3f9d1580	1.2272186
61	0x3f90a4d9	1.1300308
62	0x3f8c9219	1.0982085
63	0x3fb6415f	1.42387
64	0x3f7e180b	0.99255437
65	0x3fd73a82	1.681473
66	0x3f505519	0.8137985
67	0x3f7f92a9	0.9983316
68	0x3f6496e3	0.89292735
69	0x3fc3e54d	1.5304352
70	0x3fe1f736	1.7653568
71	0x3f874fc1	1.0571214
72	0x3fcdfa36	1.6091983
73	0x3fc030dc	1.5014911
74	0x4013b369	2.3078253
75	0x3f925200	1.1431274
76	0x3ef53ce4	0.47898018
77	0x3fc78696	1.5587947
78	0x3f38a661	0.72128874
79	0x3fdc86eb	1.7228674
80	0x3f55ea3a	0.83560526
81	0x3f91943f	1.1373366
82	0x3fa50710	1.289278
83	0x3f8b88f4	1.090117
84	0x3f1967db	0.59924096
85	0x3fda33b5	1.704703
86	0x3f8835ec	1.0641456
87	0x3f152840	0.5826454
88	0x3fb61244	1.4224324
89	0x3e651497	0.22371136
90	0x3fcdcd6d	1.6078316
91	0x3f7f1495	0.9964078
